outcome_model_bundle.pt (torch, 87683 bytes, 8 tensors)

fc1.weight f4 [128, 96]
0	0xbe0db791	-0.13839556
1	0xbd23f1c2	-0.04002548
2	0x3a9dc448	0.0012036646
3	0x3d97f115	0.074190296
4	0xbe141e10	-0.14464593
5	0xbcc214dd	-0.023691589
6	0x3d50b945	0.050957937
7	0x3d8c5f9c	0.068541735
8	0xbddd1dab	-0.10796674
9	0x3d4834d1	0.048878495
10	0x3da8e36d	0.08246503
11	0xbdf8dc33	-0.12151375
12	0x3c84a2b9	0.016190873
13	0xbc895bd6	-0.016767424
14	0xbb97cbc6	-0.004632446
15	0x3d41fe90	0.04736191
16	0x3c172e20	0.009227306
17	0x3d273799	0.040824506
18	0x3dd2432b	0.102667175
19	0x3a78a762	0.0009485391
20	0x3cd50a44	0.026005872
21	0xbcb2333c	-0.021752946
22	0xbbc6a5a3	-0.006062226
23	0xbd5d3792	-0.054008074
24	0xbd4b9d97	-0.049710836
25	0x3dc506c8	0.09620434
26	0xbda7bcd0	-0.0819031
27	0xbdba5050	-0.0909735
28	0x3cc009de	0.023442205
29	0x3dd3ee79	0.103482194
30	0xbc61c95e	-0.01378092
31	0xbda9f6d6	-0.08299033
32	0x3e54eab8	0.20792663
33	0xbd3a32dd	-0.045458663
34	0x3e2dc7df	0.16970776
35	0x3db922ac	0.09039816
36	0x3bfff9be	0.007811754
37	0x3dac5198	0.08414
38	0x3dab4f78	0.08364767
39	0xbcaa94fd	-0.020822996
40	0xbd59ebec	-0.05320351
41	0xbda3d276	-0.079991266
42	0xbe0edb0b	-0.13950746
43	0x3dc223d4	0.0947949
44	0xbdb93401	-0.09043122
45	0x3dcdccb3	0.10048809
46	0x3dcaa118	0.098940074
47	0x3bff6a74	0.0077946726
48	0xbda15f22	-0.07879473
49	0x3dc8c2df	0.09802794
50	0x3bc6ad62	0.0060631493
51	0x3d8b06bf	0.06788396
52	0xbd5e8635	-0.05432721
53	0xbb8015b2	-0.0039088363
54	0xbdefa764	-0.11701849
55	0xbdd5bd3c	-0.10436484
56	0xbe00c9f4	-0.12577039
57	0xbe26c1cd	-0.16284867
58	0x3b576992	0.0032869321
59	0x3e014b46	0.12626371
60	0x3cff5bcc	0.031171702
61	0xbc4e6f45	-0.012599771
62	0xbc3ce100	-0.011528254
63	0x3bd4a056	0.00648884
64	0xbd13495c	-0.035958633
65	0xbdcb22fc	-0.09918782
66	0x3e048eaf	0.12945054
67	0xbd02c019	-0.03192148
68	0xbdb6e244	-0.089298755
69	0xbe36a0bb	-0.17834751
70	0xba930619	-0.0011217027
71	0x3d45d615	0.048299868
72	0xbc0e55c7	-0.008687443
73	0x3dfad414	0.12247482
74	0xbc9138f7	-0.017727358
75	0x3d8b8b8c	0.06813726
76	0xbded4df2	-0.115871325
77	0x3d934fbd	0.07192943
78	0xbe1fdf18	-0.15612447
79	0x3dc71112	0.09720053
80	0xbd26883f	-0.04065728
81	0xbde36e65	-0.111050405
82	0x3cc49b14	0.023999728
83	0xbde145c8	-0.10999638
84	0x3cc36bd7	0.023855133
85	0x3d8a6cf2	0.06759061
86	0xbcd043bd	-0.025422925
87	0x3e0ae5c3	0.1356421
88	0x3d84b2df	0.064794295
89	0x3d5aea39	0.05344603
90	0x3e0627e3	0.13101153
91	0xbdcfdcf1	-0.10149563
92	0x3e0ea286	0.13929185
93	0xbd499c20	-0.049221158
94	0xbdb2cf32	-0.087309256
95	0xbd954f8a	-0.072905615
96	0xbe03cbe2	-0.12870744
97	0xbe0512b0	-0.1299541
98	0xbc656688	-0.014001496
99	0xbe0105b4	-0.12599832
100	0x3c9f35e8	0.019434884
101	0x3e47499e	0.19461676
102	0xbe5d1e67	-0.21593629
103	0x3d3a722e	0.045519046
104	0xbb8135f5	-0.0039431998
105	0xbd4234e1	-0.04741371
106	0x3c5ceda2	0.01348439
107	0xbdb7540a	-0.08951576
108	0x3be8b8fe	0.007102131
109	0x3ce8f33c	0.028436296
110	0xbd84656b	-0.064646564
111	0x3cd6f54d	0.026240015
112	0xbdb1871f	-0.086683504
113	0x3d7a7ec2	0.061156042
114	0xbdd79844	-0.10527089
115	0x3cf356d8	0.029704496
116	0x3da505a5	0.08057717
117	0x3d9a3777	0.0753011
118	0x3dfde457	0.12397068
119	0xbd319b29	-0.043360863
120	0x3e22ed12	0.15910748
121	0x3d21a4af	0.039463695
122	0x3dde87b1	0.10865725
123	0x3c807945	0.015682826
124	0x3e4aaada	0.19791737
125	0xbdb55668	-0.08854371
126	0x3d205b60	0.039149642
127	0xbca8b478	-0.020593867
128	0xbdb0d4c6	-0.08634333
129	0x3d60a6c8	0.054846555
130	0x3e0c54c8	0.13704216
131	0x3cbe7107	0.023247255
132	0x3dc6e8e5	0.0971239
133	0xbcfd7d03	-0.0309434
134	0xbcd8caed	-0.02646395
135	0x3c4ebb77	0.012617937
136	0x3dc9b312	0.09848608
137	0xbd20ea33	-0.03928585
138	0x3c094d70	0.008380279
139	0x3d87896a	0.066180065
140	0x3e2e2afd	0.17008586
141	0xbd295577	-0.04134127
142	0x3e26ffaa	0.16308466
143	0x3d89f069	0.06735308
144	0x3d9ee80d	0.07759104
145	0x3d8bf1f0	0.06833255
146	0x3cd3367c	0.025782816
147	0xbd7f021c	-0.06225787
148	0xbd637aa2	-0.055536874
149	0xbd762715	-0.060095865
150	0x3d4edee6	0.05050554
151	0xbd53058c	-0.05151896
152	0x3dd39980	0.10332012
153	0x3d8792c1	0.06619788
154	0x3ce66293	0.028123176
155	0x3d5bb659	0.053640697
156	0x3d788d20	0.060681462
157	0xbd9c5e18	-0.076351345
158	0x3da6bd0c	0.081415266
159	0xbdbb965d	-0.09159539
160	0xbdad690e	-0.08467303
161	0x3e184926	0.14871654
162	0x3d3c858c	0.046025798
163	0x3d23a407	0.03995135
164	0x3e0e1a2e	0.13877174
165	0xbabd4f81	-0.001444325
166	0x3b72b7e2	0.0037035872
167	0x3d910218	0.070804775
168	0xbda05b9e	-0.078299746
169	0xbd263ff9	-0.040588353
170	0xba5d2e8b	-0.00084374164
171	0xbd4116ba	-0.047140814
172	0x3d663e66	0.05621185
173	0x3c91716a	0.017754275
174	0xbcfd5ee3	-0.030929035
175	0x3de0d305	0.10977749
176	0xbdaab91b	-0.08336087
177	0x3db9ae49	0.090664454
178	0x3c859528	0.016306475
179	0xbd7eb8a8	-0.06218782
180	0x3cd112be	0.025521632
181	0xbd27f192	-0.041001864
182	0xbbafa8c9	-0.005360697
183	0xbd66a313	-0.056307863
184	0x3d818732	0.063246146
185	0xbc94ebe0	-0.01817888
186	0xbd66734d	-0.056262303
187	0xbcb1072a	-0.021609861
188	0x3dca9d47	0.098932795
189	0xbd5d3168	-0.054002196
190	0x3d7bd96a	0.06148664
191	0xbd9e5381	-0.07730771
192	0x3db0f113	0.08639731
193	0x3dcb1604	0.099163085
194	0xbd08eadb	-0.0334271
195	0x3cc58f43	0.024116164
196	0x3db29b80	0.087210655
197	0xbd39971a	-0.045310117
198	0xbe569db2	-0.20958593
199	0x3c406a16	0.011744043
200	0xbd31c9e0	-0.043405414
201	0x3dfe55c7	0.124187045
202	0x3ded4ce5	0.11586932
203	0xbc348797	-0.011018655
204	0x3d5a2703	0.05325986
205	0xbd831bbc	-0.06401774
206	0x3cedbf5d	0.029021913
207	0x3c29a595	0.010354419
208	0x3d872c86	0.06600289
209	0x3df56e39	0.11983914
210	0x3da0b813	0.07847609
211	0x3d5f47b9	0.05451176
212	0xbb821aa1	-0.0039704596
213	0xbd85137a	-0.064978555
214	0xbbfeefaa	-0.007780035
215	0x3dbff693	0.09373202
216	0x3e3b6c11	0.18302943
217	0x3b9f373c	0.0048588794
218	0x3c623bca	0.0138082
219	0x3e5128a1	0.20425655
220	0xbddca680	-0.10773945
221	0x3e30b4f7	0.17256533
222	0x3dbdb020	0.09262109
223	0x3d9a9786	0.07548432
224	0xbe22bd41	-0.15892507
225	0xbdf4b807	-0.11949163
226	0x3c31fade	0.010863034
227	0xbce3a2ed	-0.02778765
228	0xbd8bebdf	-0.06832098
229	0x3d88ede2	0.066859975
230	0xbd4ed04d	-0.05049162
231	0xbd590b51	-0.052989308
232	0xbddbf5ff	-0.107402794
233	0x3da83aef	0.08214366
234	0x3cb82fa1	0.022483649
235	0xbd93e2a6	-0.07220964
236	0x3e584081	0.21118356
237	0x3c732582	0.0148404855
238	0xbce446fc	-0.02786588
239	0xbc6151a6	-0.013752377
240	0x3d143fe0	0.03619373
241	0xbd944c17	-0.072410755
242	0xbcc8cd6f	-0.02451202
243	0xbd4038c9	-0.046929155
244	0xbd89fe4c	-0.067379564
245	0xbb16df20	-0.0023021176
246	0xbc91ecb1	-0.017813059
247	0xbc623236	-0.0138059165
248	0x3d5b272c	0.053504154
249	0xbd5f3acd	-0.054499436
250	0x3d9eefb9	0.07760567
251	0xbce1f7e1	-0.027584018
252	0x3c046d95	0.008082767
253	0x3de2d7df	0.110763304
254	0xbc7f4de6	-0.015582537
255	0x3d83fa77	0.06444257

fc1.bias f4 [128]
0	0xbdfcbba0	-0.12340474
1	0xbdd1f246	-0.10251288
2	0x3d834fa8	0.064116776
3	0xbcbf2bc9	-0.023336308
4	0xbda141cd	-0.07873879
5	0xbe00d4af	-0.12581132
6	0x3d788807	0.0606766
7	0xbe3e103a	-0.18560877
8	0xbd350845	-0.04419734
9	0x3d9a30ff	0.075288765
10	0xbd13ae59	-0.036054943
11	0x3d242ad3	0.040079903
12	0xbdeed926	-0.116625115
13	0xbe33d0af	-0.17560075
14	0xbd370535	-0.0446827
15	0x3cf672fe	0.03008413
16	0xbdd01532	-0.10160293
17	0x3d466a06	0.048440956
18	0xbd3d1400	-0.04616165
19	0xbd9b7e31	-0.075924285
20	0xbe291621	-0.16512348
21	0x3d0041ae	0.031312637
22	0x3c90f106	0.017693054
23	0xbe060eaa	-0.13091531
24	0xbe0e2a30	-0.13883281
25	0xbd59fa74	-0.053217366
26	0x3a9bfb1a	0.0011900396
27	0xbd246ee1	-0.040144805
28	0x3c832911	0.016010793
29	0xbe04368f	-0.12911437
30	0xbcb9a3d4	-0.022661127
31	0xbdc23e23	-0.09484508
32	0xbde43fd0	-0.11144984
33	0x3b532c33	0.003222239
34	0xbde1ea0e	-0.110309705
35	0xbd4dc8b6	-0.05024024
36	0x3cff0714	0.031131305
37	0x3a8e558f	0.0010859239
38	0xbe058019	-0.13037147
39	0xbda2be53	-0.07946458
40	0x3d3fb311	0.04680163
41	0xbe32a7ed	-0.17446871
42	0x397c5f8d	0.00024068188
43	0xbddefcad	-0.10888038
44	0x3d94922f	0.07254445
45	0xbd2176b0	-0.03941983
46	0xbe0c4b81	-0.13700677
47	0xbd6a0625	-0.057134766
48	0xbc8c11bc	-0.0170983
49	0x3c9079e2	0.017636243
50	0xbae5f7b4	-0.0017545135
51	0xbce3bfed	-0.027801478
52	0xbd2af35e	-0.041736
53	0xbdc62dc0	-0.09676695
54	0xb99f1b49	-0.00030347172
55	0xbdb06cbe	-0.08614491
56	0x3caead1b	0.021322777
57	0xbd962fd8	-0.07333344
58	0x3b817abd	0.003951399
59	0xbd615660	-0.055014014
60	0xbdb71eff	-0.08941459
61	0xbd80b176	-0.06283848
62	0xbcf1e0d8	-0.02952616
63	0xbbacd3fe	-0.005274295
64	0x3c5c0732	0.01342945
65	0xbdb359ad	-0.08757339
66	0xbdf5b930	-0.11998212
67	0xbe1651a0	-0.14679575
68	0xbe196175	-0.14978583
69	0xbdcd1189	-0.1001311
70	0xbd68f782	-0.056876667
71	0xbd9aa0e5	-0.075502194
72	0x3c330d7c	0.010928508
73	0xbe062bea	-0.1310269
74	0x3d48462f	0.048895057
75	0xbe2b9482	-0.1675587
76	0xbd3cf99d	-0.046136487
77	0xbd5edef9	-0.054411862
78	0xbd28e2e3	-0.041232
79	0xbe256896	-0.16153178
80	0xbd6bfb28	-0.05761257
81	0xbe49aa85	-0.19693954
82	0xbc0afb96	-0.008482834
83	0xbb0622b7	-0.002046747
84	0xbd8866f9	-0.066602655
85	0xbe2a2fe6	-0.16619834
86	0xbde9428b	-0.11389645
87	0x3d872a81	0.06599904
88	0xbdc2603d	-0.09491012
89	0x3c40656b	0.01174293
90	0xbe184449	-0.14869799
91	0xbdbb7ab6	-0.09154265
92	0xbd702759	-0.058631275
93	0xbe22abee	-0.15885898
94	0xbc94c8b9	-0.018162118
95	0xbe22bbc0	-0.15891933
96	0xbde6afef	-0.112640254
97	0xbde71447	-0.112831645
98	0x3d0dca8e	0.034617
99	0xbe0bde52	-0.13659027
100	0xbd3875b1	-0.045034114
101	0xbdc9600a	-0.09832771
102	0x3d6be9f0	0.057596147
103	0xbc39ff25	-0.011352335
104	0xbe045ef4	-0.12926847
105	0xbdb7e05f	-0.08978342
106	0xbdc189da	-0.09450121
107	0xbdd91ce3	-0.10601213
108	0xbc17b431	-0.00925927
109	0x3c0dcf81	0.00865543
110	0x3d937db1	0.07201708
111	0xbd894c23	-0.06703975
112	0x3d429390	0.047504008
113	0x3cc89d61	0.024489107
114	0xbe1a5819	-0.15072669
115	0xbd877d27	-0.06615668
116	0xbdd28943	-0.10280087
117	0xbd656f36	-0.056014262
118	0xbd9f3b2c	-0.07774958
119	0xbd30dfdb	-0.043182235
120	0x3d6fab40	0.058512926
121	0xbe1dd46d	-0.15413065
122	0x3c017c12	0.007903116
123	0xbdcd6b64	-0.10030249
124	0xbdfd73db	-0.12375613
125	0x39b74e79	0.00034962947
126	0xbd38e0cb	-0.045136254
127	0xbdee6804	-0.11640933

fc2.weight f4 [64, 128]
0	0xbdc2e03b	-0.09515425
1	0x3d7ea835	0.062172133
2	0x3c6c5c72	0.014426338
3	0x3d4cbcdc	0.049984798
4	0x3ca0d53c	0.019632928
5	0xbde33eb1	-0.11095942
6	0x3e10f283	0.14155011
7	0xbdb201a3	-0.086917184
8	0x3c964cad	0.018347109
9	0xbd75c26c	-0.05999987
10	0x3d4384d9	0.047734115
11	0xbd1b8ba0	-0.037974954
12	0xbc390a20	-0.011293918
13	0xbdbbe075	-0.09173671
14	0x3dfce911	0.123491414
15	0x3d492b63	0.049113642
16	0x3cae728e	0.021294858
17	0xbc5720bb	-0.013130362
18	0xbccb57b5	-0.024822095
19	0x3cc983b4	0.024598934
20	0x3a1b4b88	0.0005924036
21	0xbd5f6305	-0.05453779
22	0x3da6be7c	0.08141801
23	0xbdb851fa	-0.09000011
24	0x3cd5952e	0.026072111
25	0xbd22be72	-0.039732404
26	0xbe21e5a0	-0.15810251
27	0x3bdcd0ba	0.0067387493
28	0x3db3aaed	0.08772836
29	0xbd4fd817	-0.05074319
30	0xbdbc7e94	-0.0920383
31	0x3cf0a4e6	0.029375505
32	0x3daa75ec	0.08323273
33	0xbd3e9137	-0.046525206
34	0x3d235caa	0.039883293
35	0xbcc7ede9	-0.024405437
36	0x3d12e955	0.035867054
37	0xbe458728	-0.1928984
38	0xbe264737	-0.16238104
39	0xbdd85ce4	-0.105645925
40	0x3d3fb792	0.046805926
41	0x3d964e62	0.07339169
42	0x3c9278ce	0.01787987
43	0xbd04055b	-0.03223167
44	0x3d66d3b6	0.056354247
45	0x3c5f5a67	0.013632393
46	0xbe1471db	-0.14496557
47	0xbd5e3dc4	-0.054258123
48	0x3c7c5d9a	0.015403176
49	0x3da538eb	0.08067497
50	0x3d8717ad	0.06596313
51	0x3ca60da4	0.020270176
52	0x3d80382c	0.06260714
53	0xbda75158	-0.08169812
54	0x3da5bb02	0.080923095
55	0x3d99d5d6	0.07511489
56	0x3ce49c3a	0.027906526
57	0x3daa43c1	0.08313704
58	0x3cba4221	0.02273661
59	0xbc323b83	-0.0108784465
60	0x3dbc63f2	0.091987506
61	0xbda8feb5	-0.082517065
62	0xbd87b47a	-0.0662622
63	0x3c9c089e	0.019047078
64	0x3cd7c010	0.0263367
65	0x3dd9e67a	0.10639663
66	0x3bb97f7a	0.0056609483
67	0xbd4aa5b2	-0.049474426
68	0xbb94dea9	-0.0045431447
69	0xbde78c75	-0.11306087
70	0x3d502995	0.050820906
71	0xbc81fac6	-0.015866648
72	0x3cebe3cd	0.028795147
73	0x3cf6c7b4	0.030124523
74	0xbdd40e89	-0.10354335
75	0x3c2b5287	0.010456688
76	0xbe09560a	-0.13411728
77	0xbd50d462	-0.050983794
78	0xbccfcf77	-0.025367482
79	0xbe1e6489	-0.15468039
80	0x3c020631	0.007936046
81	0x3d203f1f	0.039122697
82	0x3e1c486f	0.15262006
83	0x3e23102e	0.15924141
84	0xbdb596b1	-0.08866633
85	0xbcb74bea	-0.022375066
86	0xbdfc5763	-0.12321355
87	0x3dc6fb54	0.09715906
88	0xbcf92653	-0.030413782
89	0x3d2ddbae	0.04244583
90	0x3e15977b	0.14608566
91	0x3d5a5745	0.053305883
92	0x3d815b6a	0.06316264
93	0x3d364f1c	0.04450904
94	0xbdd239e1	-0.10264946
95	0x3e0614c7	0.13093863
96	0xbde9411f	-0.11389374
97	0xbe5db7d8	-0.21652162
98	0xbda68ab8	-0.08131927
99	0x3d04c720	0.032416463
100	0x3d4bc29a	0.049746133
101	0x3d1a973a	0.037741877
102	0x3e08c19f	0.1335511
103	0x3a09ccca	0.0005256651
104	0x3df4f637	0.11961024
105	0x3d7ad779	0.061240647
106	0x3d9d9ca0	0.076958895
107	0x3d594658	0.0530456
108	0xbd2a6da0	-0.041608453
109	0x3ce68edf	0.028144298
110	0xbdf478ce	-0.11937104
111	0x3cf43323	0.02980954
112	0xbd41e03d	-0.04733299
113	0x3cbc1280	0.02295804
114	0xbbeaa4b0	-0.0071607456
115	0x3de254d1	0.11051334
116	0x3c2644c2	0.010148229
117	0x3d6127d3	0.05496962
118	0xbd88a66b	-0.06672367
119	0xbd7bf026	-0.06150832
120	0xbcb8c4c1	-0.022554757
121	0x3de67e76	0.11254589
122	0xbd1160c4	-0.035492674
123	0xbd74e81e	-0.059791677
124	0x3b982c81	0.004643977
125	0x3c3716ce	0.011174871
126	0x3d6b0126	0.057374142
127	0x3d2c4194	0.042054728
128	0x3cd8fb32	0.026486967
129	0xbd223eb6	-0.039610587
130	0xbe31c33f	-0.17359637
131	0x3d9ebbd9	0.07750673
132	0x3e12407f	0.14282416
133	0xbd675642	-0.056478746
134	0x3dbd8763	0.092543386
135	0xbd707284	-0.05870296
136	0x3dd65e32	0.10467185
137	0x3dd5a371	0.104315646
138	0x3d1b8c0c	0.037975356
139	0xbdd17f4c	-0.10229358
140	0xbe6ae30b	-0.22938173
141	0x3b260ea2	0.0025338312
142	0xbdc23c0f	-0.094841115
143	0xbc0787be	-0.00827211
144	0x3e07a5ad	0.13246794
145	0xbcb172c7	-0.021661175
146	0xbda893b8	-0.082313
147	0x3e100571	0.14064576
148	0x3d077d89	0.033078704
149	0xbd2dcc58	-0.042431206
150	0x3d9e7106	0.07736401
151	0xbde41667	-0.111370854
152	0xbdf8d5c2	-0.12150146
153	0x3de7bd35	0.11315385
154	0x3db0f944	0.08641294
155	0xbe176fda	-0.14788762
156	0xbc899640	-0.016795278
157	0xbd9d090c	-0.07667741
158	0xbe02e7a8	-0.12783682
159	0x3c11d2fa	0.008900398
160	0x3d6d1739	0.057883475
161	0xbd090adc	-0.033457622
162	0xbd84789a	-0.064683154
163	0xbc69da2a	-0.014273206
164	0xbe2a9387	-0.1665784
165	0xba986391	-0.0011626353
166	0x3c6836e0	0.0141732395
167	0x3dd63826	0.10459928
168	0xbcd1cf85	-0.025611648
169	0x3d0e192b	0.03469197
170	0x3d171442	0.036884554
171	0x3cf9b84d	0.03048339
172	0xbd0a9b30	-0.033839405
173	0x3b28eb0e	0.002577487
174	0xbd624d1a	-0.05524931
175	0x3d256590	0.04038006
176	0x3df2fcab	0.11864599
177	0x3d647bd7	0.055782165
178	0xbdfc2122	-0.12311007
179	0x3cdf309d	0.02724486
180	0x3d8c01ef	0.06836306
181	0x3db385e1	0.0876577
182	0x3de13186	0.10995774
183	0xbdeb4c3f	-0.11489152
184	0xbe230aad	-0.15922041
185	0xbdee2062	-0.1162727
186	0xbe1c5a6e	-0.15268871
187	0x3c561b82	0.013068082
188	0xbd8efadd	-0.06981442
189	0xbd3f71de	-0.04673945
190	0xbd4c8f61	-0.049941424
191	0x3b636047	0.0034694837
192	0xbd5b70b7	-0.05357429
193	0xbdcc8747	-0.099867396
194	0xbd479584	-0.048726574
195	0x3e0268b0	0.12735248
196	0xbdfbcc0c	-0.12294778
197	0xbd9962b6	-0.07489531
198	0x3daa5179	0.08316321
199	0xbe1e358e	-0.15450117
200	0x3b75f01c	0.003752715
201	0xbe595d47	-0.21226989
202	0x3d91176e	0.07084547
203	0xbb858240	-0.004074365
204	0xbd5d57f8	-0.05403897
205	0x3e11206c	0.14172524
206	0x3dd2b6c1	0.10288764
207	0x3d163e1e	0.036680333
208	0xbb0b6606	-0.0021270528
209	0xbd0a854a	-0.03381852
210	0xbbd75036	-0.006570841
211	0x3b32847f	0.0027239618
212	0x3c6fe4fc	0.0146419965
213	0xbcdd846a	-0.027040679
214	0x3d57522e	0.052568607
215	0x3dcf663b	0.10126921
216	0xbe0edf2b	-0.1395232
217	0x3e06265b	0.13100569
218	0xbce2b157	-0.027672453
219	0xbc2c903e	-0.010532437
220	0xbd826e30	-0.06368673
221	0xbe404683	-0.18776898
222	0x3d56c059	0.05242953
223	0xbda5aaed	-0.08089242
224	0xbbb2417b	-0.005439935
225	0x3db85fa2	0.090026155
226	0x3c05393f	0.008131324
227	0xbe093755	-0.13400014
228	0xbd8d7063	-0.06906202
229	0xbd34e3a2	-0.0441624
230	0xbdc244b6	-0.09485762
231	0xbde0d509	-0.10978133
232	0x3d86697c	0.06563088
233	0xbda58256	-0.080815
234	0xbdba020f	-0.09082424
235	0xbaa2f64c	-0.0012433021
236	0xbd260296	-0.04052981
237	0x3e070d74	0.13188726
238	0x3e0012d1	0.12507178
239	0x3e031a94	0.12803108
240	0xbcc0a9b0	-0.023518413
241	0x3dc3f535	0.09568254
242	0x3d4e4086	0.050354503
243	0x3dada8d9	0.08479471
244	0x3dacf25d	0.084446646
245	0xbaf40b42	-0.0018619078
246	0x3e1b622e	0.15174171
247	0x3e2762ab	0.16346233
248	0x3d9e69eb	0.07735046
249	0xbd0da26b	-0.034578722
250	0x3d8ce58e	0.068797216
251	0xbdf89e00	-0.12139511
252	0x3e092eb8	0.13396728
253	0xbc14ed24	-0.009089742
254	0xbd95915b	-0.07303115
255	0x3db1c735	0.08680574

fc2.bias f4 [64]
0	0x3b4787af	0.0030445864
1	0x3d554a95	0.05207308
2	0xbbb7f6bc	-0.00561413
3	0x3b21b2e3	0.0024673275
4	0xbd63ab1b	-0.0555831
5	0xbd5ade0f	-0.053434428
6	0xbb9e161d	-0.0048244135
7	0x3d7d9c5f	0.061916705
8	0x3da2629b	0.07928964
9	0x3dafa7b2	0.08576907
10	0xbc6aac35	-0.014323284
11	0x3cc661ea	0.024216611
12	0xbbb4c772	-0.00551694
13	0xbd364e1a	-0.044508077
14	0x3c515b35	0.012778093
15	0xbcedc4fb	-0.029024592
16	0xbc8b61a9	-0.017014341
17	0xbb761f1e	-0.0037555168
18	0xbc52919d	-0.0128521
19	0x3d6e0d43	0.058118116
20	0xbd6cd211	-0.057817522
21	0x3d221a46	0.039575838
22	0xbd131300	-0.03590679
23	0xbc3512be	-0.011051832
24	0xbd811626	-0.063030526
25	0x3dbab30b	0.09116181
26	0x3d66917e	0.056291096
27	0xbcb8bf13	-0.022552049
28	0x3d34d69f	0.04414999
29	0x3de169a4	0.110064775
30	0x3b962061	0.0045814966
31	0x3dc40249	0.09570748
32	0x3d0b744f	0.034046467
33	0xbdb1255d	-0.086497046
34	0x3b4654b6	0.0030262894
35	0xbcab6572	-0.020922396
36	0x3ddfe4b6	0.10932295
37	0x3bd674cd	0.0065446855
38	0xbce62dfa	-0.028098095
39	0xbd22d7dc	-0.03975664
40	0x3d87eb55	0.06636683
41	0xbd9004bc	-0.07032153
42	0x3d51ad79	0.051190827
43	0x3d8c0d8a	0.0683852
44	0xbc3cf4c4	-0.011532966
45	0xbd758777	-0.059943642
46	0xbc69aaf9	-0.014261954
47	0xbd443c3a	-0.047909
48	0xbd454461	-0.048160914
49	0xbd8335b0	-0.064067245
50	0xbbcb4373	-0.006203109
51	0xbd04ac96	-0.032391153
52	0x3ccda9cb	0.025105378
53	0x3cad1ab5	0.021130899
54	0x3dc076ba	0.09397645
55	0x3daa24ea	0.08307822
56	0x3d0c89d0	0.034311116
57	0x3dd0a6d1	0.10188068
58	0x3dc1d8bb	0.09465166
59	0x3df6d810	0.120529294
60	0x3d9189b1	0.07106341
61	0x3dc7794c	0.097399324
62	0x3d874046	0.06604056
63	0x3c9c3a22	0.019070689

out.weight f4 [2, 64]
0	0x3dc9d12a	0.09854348
1	0xbe89415d	-0.2680768
2	0x3e1e4d52	0.15459183
3	0x3e83f9e8	0.257766
4	0x3e87c37a	0.26516324
5	0x3e1eddfc	0.15514368
6	0xbe8786f5	-0.26470152
7	0xbcfbf270	-0.030755252
8	0x3e15a683	0.146143
9	0xbea53d56	-0.32273358
10	0x3e61b195	0.22040398
11	0xbe791b2c	-0.24326771
12	0xbe7f9bf5	-0.24961837
13	0xbd3ae4bb	-0.04562829
14	0xbe3b6d00	-0.18303299
15	0xbe7d6ffa	-0.24749747
16	0x3e1fa3c7	0.1558982
17	0x3d8fb634	0.07017174
18	0xbe0d0401	-0.13771059
19	0xbe6aba1e	-0.2292256
20	0xbe82595a	-0.25458795
21	0xbda89fad	-0.08233581
22	0x3db66dd1	0.089076646
23	0xbcf45dab	-0.02982982
24	0x3e7f20cf	0.24914859
25	0xbe92b262	-0.2865172
26	0x3e88cfea	0.26721126
27	0xbe8898df	-0.2667913
28	0x3e40551f	0.18782471
29	0xbdad23f1	-0.08454121
30	0x3db21e69	0.086972065
31	0xbdcde979	-0.10054297
32	0xbe4c76eb	-0.19967239
33	0xbe2e2a92	-0.17008427
34	0x3dd247b0	0.102675796
35	0xbe484783	-0.1955853
36	0x3e27e72d	0.1639678
37	0xbdb29d60	-0.08721423
38	0xbe4c16ff	-0.19930647
39	0xbde21140	-0.110384464
40	0xbe3d7503	-0.18501668
41	0xbe380232	-0.17969587
42	0xbe7dd216	-0.24787173
43	0x3e920c9b	0.28525242
44	0xbe4392f0	-0.19099021
45	0x3e589885	0.21151932
46	0x3e00d2c7	0.12580405
47	0x3e34fe15	0.1767505
48	0x3df6b929	0.12047035
49	0x3df1df91	0.1181022
50	0x3e1fcf26	0.15606365
51	0x3e14280b	0.144684
52	0x3ed10888	0.4082682
53	0x3e45189f	0.19247673
54	0x3dd3529a	0.103184894
55	0x3e42b74d	0.19015236
56	0x3e93b402	0.28848273
57	0x3da3c772	0.079970255
58	0xbe593fd8	-0.2121576
59	0xbe01bd20	-0.12669802
60	0x3e1c10db	0.15240805
61	0x3e0dccf1	0.1384771
62	0xbe85c82a	-0.26129276
63	0xbe3f4cb8	-0.1868161
64	0xbe2d15ed	-0.16902895
65	0x3e92b7b3	0.28655776
66	0xbe408e4f	-0.18804286
67	0xbe258e08	-0.16167462
68	0xbe430228	-0.19043791
69	0xbe0400e2	-0.12890962
70	0x3e51fba7	0.20506154
71	0x3e0ef1e5	0.13959463
72	0xbe877eb5	-0.26463857
73	0x3e2f6634	0.17128831
74	0xbeb6984f	-0.35663077
75	0x3e2ab3a7	0.16670094
76	0x3e191e86	0.1495305
77	0x3e6c6a68	0.23087466
78	0x3e398ed2	0.18120888
79	0x3e09556e	0.13411495
80	0xbdcd7de1	-0.10033775
81	0xbe541ee7	-0.20714913
82	0x3e44233c	0.19154066
83	0x3dfa5153	0.122225426
84	0x3e6af46f	0.22944807
85	0x3d6873fb	0.056751233
86	0xbe4949ec	-0.19657105
87	0x3e48ee8b	0.19622247
88	0xbe70d85b	-0.23520033
89	0x3e21cb05	0.15800102
90	0xbe6fcd44	-0.23418146
91	0x3e934fbf	0.2877178
92	0xbe658115	-0.22412522
93	0x3e3494d0	0.17634892
94	0x3c73a723	0.0148713915
95	0x3e3e1b80	0.18565178
96	0x3e597f06	0.21239862
97	0x3ea71b2d	0.3263792
98	0xbe13b6da	-0.14425221
99	0x3dc08191	0.09399713
100	0xbe673f49	-0.22582735
101	0x3e9e5de6	0.30931014
102	0x3e23829b	0.15967791
103	0x3e81dfab	0.25365958
104	0x3e0b2f46	0.13592252
105	0x3e46d766	0.19418105
106	0x3c6cca23	0.01445249
107	0xbe805855	-0.25067392
108	0x3e25a4ca	0.16176143
109	0xbe4d7a1e	-0.20066115
110	0x3d7173cd	0.058948327
111	0xbd076ecf	-0.03306466
112	0xbd8dc021	-0.06921411
113	0xbe12fbf8	-0.14353931
114	0xbe1fc7c5	-0.1560355
115	0xbdeefcdd	-0.116693236
116	0xbebd0455	-0.36917368
117	0xbe7215c3	-0.23641114
118	0xbe5aa206	-0.2135087
119	0x3c3f2611	0.011666791
120	0xbdfcc077	-0.12341397
121	0xbe27d7b0	-0.16390872
122	0x3dd78f50	0.105253816
123	0x3e1d5aff	0.15366744
124	0xbcf62dda	-0.03005116
125	0xbcda5349	-0.026651042
126	0x3e8c9560	0.27457714
127	0x3e1bda53	0.15220003

out.bias f4 [2]
0	0xbde7d7f0	-0.11320484
1	0x3ca521e0	0.020157754

mean_match f4 [1, 96]
0	0x3e367a4a	0.17820087
1	0x3e1fbba1	0.15598918
2	0x3ce2ee03	0.027701383
3	0x3eae0c5e	0.3399381
4	0x3e2693d0	0.16267323
5	0x3e5ff1d4	0.21869594
6	0x3dbb4fa8	0.091460526
7	0x3e55ffd1	0.20898367
8	0x3e6aa9c2	0.2291632
9	0x3ebacf17	0.36486122
10	0x3ea13284	0.31483853
11	0x3a98f8f4	0.0011670874
12	0x3e5a03bc	0.21290487
13	0x3e15f1c4	0.14643008
14	0x3e0edf1f	0.13952301
15	0x3e96d702	0.29460913
16	0x3e31b3aa	0.17353693
17	0x3e2e4ed9	0.17022265
18	0x3db7d6b0	0.08976495
19	0x3dbaba9f	0.091176264
20	0x3e024405	0.1272126
21	0x3eae8722	0.34087473
22	0x3e6d786d	0.2319047
23	0x3e9d4bf0	0.30721998
24	0x3e437993	0.19089346
25	0x3db3ef0e	0.087858304
26	0x3e3e18d0	0.18564153
27	0x3e671336	0.22565922
28	0x3d7f0aa5	0.06226601
29	0x3da7aeb6	0.0818762
30	0x3d138532	0.036015697
31	0x3e89c85b	0.26910672
32	0x3e367a4a	0.17820087
33	0x3e1fbba1	0.15598918
34	0x3ce2ee03	0.027701383
35	0x3eae0c5e	0.3399381
36	0x3e2693d0	0.16267323
37	0x3e5ff1d4	0.21869594
38	0x3dbb4fa8	0.091460526
39	0x3e55ffd1	0.20898367
40	0x3e6aa9c2	0.2291632
41	0x3ebacf17	0.36486122
42	0x3ea13284	0.31483853
43	0x3a98f8f4	0.0011670874
44	0x3e5a03bc	0.21290487
45	0x3e15f1c4	0.14643008
46	0x3e0edf1f	0.13952301
47	0x3e96d702	0.29460913
48	0x3e31b3aa	0.17353693
49	0x3e2e4ed9	0.17022265
50	0x3db7d6b0	0.08976495
51	0x3dbaba9f	0.091176264
52	0x3e024405	0.1272126
53	0x3eae8722	0.34087473
54	0x3e6d786d	0.2319047
55	0x3e9d4bf0	0.30721998
56	0x3e437993	0.19089346
57	0x3db3ef0e	0.087858304
58	0x3e3e18cf	0.18564151
59	0x3e671336	0.22565922
60	0x3d7f0aa5	0.06226601
61	0x3da7aeb6	0.0818762
62	0x3d138532	0.036015697
63	0x3e89c85b	0.26910672
64	0x3df870dd	0.12130902
65	0x3ddbb71c	0.10728285
66	0x3d03dcff	0.03219318
67	0x3e27975f	0.16366337
68	0x3de92486	0.113839194
69	0x3dfd9a3f	0.12382936
70	0x3dac917e	0.08426188
71	0x3e18d780	0.14925957
72	0x3e06c557	0.13161217
73	0x3e2921d4	0.1651681
74	0x3e2b790b	0.16745393
75	0x3b120e09	0.0022286198
76	0x3e06cc84	0.13163954
77	0x3ddcd2a0	0.10782361
78	0x3df23b2b	0.11827692
79	0x3e3ebe98	0.18627393
80	0x3e0f741b	0.14009134
81	0x3debef32	0.11520232
82	0x3db4bffa	0.08825679
83	0x3da90f38	0.08254856
84	0x3dd477ea	0.10374434
85	0x3e338c49	0.17533983
86	0x3e110966	0.14163741
87	0x3e3125a8	0.17299521
88	0x3dff9cf3	0.124811076
89	0x3dae4724	0.08509663
90	0x3dd36864	0.10322645
91	0x3e1575ac	0.1459567
92	0x3d80c837	0.06288188
93	0x3d970db2	0.07375659
94	0x3d1ada1b	0.037805658
95	0x3e24f38b	0.1610853

std_match f4 [1, 96]
0	0x3df9e315	0.122015156
1	0x3e04d4fa	0.12971869
2	0x3d3a1a47	0.045435216
3	0x3e62d1de	0.2215037
4	0x3e1bf3c9	0.15229715
5	0x3e1cce4a	0.15313068
6	0x3dbfea22	0.09370829
7	0x3e405ca5	0.18785341
8	0x3e57ab6d	0.21061487
9	0x3e37ecb7	0.17961393
10	0x3e36a320	0.17835665
11	0x3c1596d2	0.009130197
12	0x3e0d65ae	0.13808319
13	0x3e00ea64	0.12589413
14	0x3e61a696	0.22036204
15	0x3e407640	0.18795109
16	0x3e509624	0.20369774
17	0x3e18d85d	0.14926286
18	0x3ded4500	0.11585426
19	0x3dac4705	0.084119834
20	0x3dc9e945	0.09858946
21	0x3e9be09c	0.304448
22	0x3e4d6dfa	0.20061484
23	0x3e547b16	0.20750079
24	0x3e4164b0	0.18886065
25	0x3dc26998	0.09492797
26	0x3dd99bbe	0.106254086
27	0x3e1b4a6b	0.15165107
28	0x3d8ff9c5	0.07030062
29	0x3da031de	0.078220114
30	0x3d263b4b	0.04058389
31	0x3e4f4671	0.20241715
32	0x3df9e315	0.122015156
33	0x3e04d4fa	0.12971869
34	0x3d3a1a47	0.045435216
35	0x3e62d1de	0.2215037
36	0x3e1bf3c9	0.15229715
37	0x3e1cce4a	0.15313068
38	0x3dbfea22	0.09370829
39	0x3e405ca5	0.18785341
40	0x3e57ab6d	0.21061487
41	0x3e37ecb7	0.17961393
42	0x3e36a320	0.17835665
43	0x3c1596d2	0.009130197
44	0x3e0d65ae	0.13808319
45	0x3e00ea64	0.12589413
46	0x3e61a696	0.22036204
47	0x3e407640	0.18795109
48	0x3e509624	0.20369774
49	0x3e18d85d	0.14926286
50	0x3ded4500	0.11585426
51	0x3dac4705	0.084119834
52	0x3dc9e945	0.09858946
53	0x3e9be09c	0.304448
54	0x3e4d6dfa	0.20061484
55	0x3e547b16	0.20750079
56	0x3e4164b0	0.18886065
57	0x3dc26998	0.09492797
58	0x3dd99bbe	0.106254086
59	0x3e1b4a6b	0.15165107
60	0x3d8ff9c5	0.07030062
61	0x3da031de	0.078220114
62	0x3d263b4b	0.04058389
63	0x3e4f4671	0.20241715
64	0x3ddfd262	0.10928799
65	0x3dea7ffc	0.11450192
66	0x3d3c4f8e	0.045974307
67	0x3e128a91	0.14310671
68	0x3e054643	0.13015084
69	0x3ddae55d	0.10688279
70	0x3dc10f30	0.09426725
71	0x3e16543c	0.1468057
72	0x3e0593e8	0.13044703
73	0x3e1d39de	0.15354106
74	0x3e1d0ca5	0.15336855
75	0x3c4e02e4	0.012573931
76	0x3dedfd9f	0.1162064
77	0x3dcf09b6	0.10109274
78	0x3e386413	0.18006925
79	0x3e25c7b5	0.16189463
80	0x3e2db3c1	0.16963102
81	0x3dee564d	0.11637554
82	0x3dd86510	0.10566151
83	0x3d9c1721	0.07621599
84	0x3dbdf6e3	0.092756055
85	0x3e2e9034	0.17047197
86	0x3e0e52d8	0.1389879
87	0x3e222046	0.15832624
88	0x3e09eff4	0.13470441
89	0x3db5b7cd	0.08872948
90	0x3dc54d0e	0.09633838
91	0x3e0b4788	0.13601506
92	0x3d892ebd	0.06698368
93	0x3d9646c3	0.073377155
94	0x3d24d3f4	0.040241197
95	0x3e1ad725	0.15121134
